…
 matplotlib.pyplot as plt\n\n\nclass_names = ['0', '1', '2', '3', '4', \n               '5', '6', '7', '8', '9']\n\n\nmake_confusion_matrix(y_true=y_test, \n                      y_pred=y_preds,\n                      classes=class_names,\n                      figsize=(15, 15),\n                      text_size=10)\n\n\n\n\n\nmodel.summary()\n\nModel: \"sequential\"\n_________________________________________________________________\n Layer (type)                Output Shape              Param #   \n=================================================================\n dense (Dense)               (None, 1000)              785000    \n                                                                 \n dropout (Dropout)           (None, 1000)              0         \n                                                                 \n dense_1 (Dense)             (None, 784)               784784    \n                                                                 \n dropout_1 (Dropout)         (None, 784)               0         \n                                                                 \n dense_2 (Dense)             (None, 400)               314000    \n                                                                 \n dropout_2 (Dropout)         (None, 400)               0         \n                                                                 \n dense_3 (Dense)             (None, 200)               80200     \n                                                                 \n dropout_3 (Dropout)         (None, 200)               0         \n                                                                 \n dense_4 (Dense)             (None, 10)                2010      \n                                                                 \n=================================================================\nTotal params: 1,965,994\nTrainable params: 1,965,994\nNon-trainable params: 0\n_________________________________________________________________\n\n\n\nimport numpy as np\nimport matplotlib.pyplot as plt\nfrom itertools import cycle\n\nfrom sklearn import sv
…
